…
sorFlow model.\",\n  \"commands\": [\n    {\n      \"keystrokes\": \"\",\n      \"duration\": 5.0\n    }\n  ]\n}"}, "observation_ref": {"path": "terminus2/Moonshot__Kimi-K2-250905/terminus2-kimi/leelachess0-pytorch-conversion/leelachess0-pytorch-conversion.1-of-1.2025-12-15__08-11-36/agent-logs/episode-21/prompt.txt", "line_start": 1, "line_end": 26, "content": "New Terminal Output:\n\ng-point round-off errors from different computation orders. To turn them off, set the environment variable `TF_ENABLE_ONEDNN_OPTS=0`.\nLC0Net model created successfully!\nModel structure:\nLC0Net(\n  (input_conv): Conv2d(112, 128, kernel_size=(3, 3), stride=(1, 1), padding=(1, 1))\n  (input_bn): BatchNorm2d(128, eps=1e-05, momentum=0.1, affine=True, track_running_stats=True)\n  (residual_blocks): ModuleList(\n    (0-9): 10 x Sequential(\n      (0): Conv2d(128, 128, kernel_size=(3, 3), stride=(1, 1), padding=(1, 1))\n      (1): BatchNorm2d(128, eps=1e-05, momentum=0.1, affine=True, track_running_stats=True)\n      (2): ReLU()\n      (3): Conv2d(128, 128, kernel_size=(3, 3), stride=(1, 1), padding=(1, 1))\n      (4): BatchNorm2d(128, eps=1e-05, momentum=0.1, affine=True, track_running_stats=True)\n    )\n  )\n  (policy_conv): Conv2d(128, 32, kernel_size=(3, 3), stride=(1, 1), padding=(1, 1))\n  (policy_bn): BatchNorm2d(32, eps=1e-05, momentum=0.1, affine=True, track_running_stats=True)\n  (policy_fc): Linear(in_features=2048, out_features=1858, bias=True)\n  (value_conv): Conv2d(128, 32, kernel_size=(3, 3), stride=(1, 1), padding=(1, 1))\n  (value_bn): BatchNorm2d(32, eps=1e-05, momentum=0.1, affine=True, track_running_stats=True)\n  (value_fc1): Linear(in_features=2048, out_features=128, bias=True)\n  (value_fc2): Linear(in_features=128, out_features=3, bias=True)\n)\nroot@rack-ge107-ya-20250517193277:/app#\n"}}, {"step_id": 22, "action_ref": {"path": "terminus2/Moonshot__Kimi-K2-250905/terminus2-kimi/leelachess0-pytorch-conversion/leelachess0-pytorch-conversion.1-of-1.2025-12-15__08-11-36/agent-logs/episode-21/response.txt", "line_start": 1, "line_end": 10, "content": "{\n  \"analysis\": \"Great! The LC0Net model
…
